p1_navigation/checkpoint.pth (torch_old, 106792 bytes, 6 tensors)

fc1.weight f4 [256, 37]
000000 19 cd d3 3c d9 5f 06 3e e1 15 10 3e f6 01 62 3e
       0.025854634 0.131225 0.14070846 0.2207106
000010 af 8b ba bd 80 f4 8a bd e2 75 81 3e 2b 11 31 3e
       -0.09108674 -0.06784916 0.2528525 0.17291705
000020 2b b0 b5 be 1a 45 c0 bf a7 bc e5 3d 39 d0 26 3e
       -0.35485968 -1.5021088 0.11217623 0.16290368
000030 99 71 c0 3d 19 a2 f8 3c 12 f7 31 3e d3 6e ae bc
       0.09396667 0.030350732 0.17379406 -0.02129308
000040 06 74 51 3e 26 50 a2 3c 70 12 7a be df d4 ee be
       0.20454416 0.019813608 -0.24421096 -0.46646783
000050 05 66 d7 bd eb 11 2c 3e b4 c2 91 bd bb bc 3d 3c
       -0.105175056 0.1680371 -0.07117215 0.011580641
000060 35 cd b2 be 82 1a 1a be 22 d2 61 3e 05 70 14 be
       -0.34922186 -0.15049174 0.22052816 -0.14495857
000070 51 25 9c be 26 55 80 bf bd c6 d4 3c 32 0d ba 3e
       -0.3049722 -1.0025985 0.025973672 0.36338192
000080 fa 2b f9 3d 5b 45 5a be 2d 47 8a bf 0d b9 57 bd
       0.12166591 -0.2131552 -1.0802971 -0.052666713
000090 91 bc c4 3c 90 de 9c bd 4e 1d bb be b6 08 1f 3e
       0.024015697 -0.07659638 -0.36545795 0.15530667
0000a0 f0 d9 ba bd e6 e3 9a be 3d 8e bb be ae 25 c8 bc
       -0.091235995 -0.30251998 -0.36631957 -0.02443203
0000b0 e4 8a 88 3e 7a a9 c4 be eb 0e 4c 3e d9 54 b6 be
       0.26668465 -0.3841055 0.19927566 -0.3561161
0000c0 3e 0a 55 3a e6 9a 01 be 03 92 b2 bd ec 0d 18 bc
       0.00081268314 -0.12656745 -0.08719256 -0.009280663
0000d0 13 5e 2d be 35 d5 c5 be 47 1d d4 bc 11 97 d8 bc
       -0.16930418 -0.38639227 -0.025892867 -0.026439222
0000e0 c8 df 1b bd 8d 65 90 3d bd 9b 08 bf 11 8c cd be
       -0.03805521 0.07050619 -0.5336264 -0.40145925
0000f0 2c b3 71 3e c6 66 0e bf df 3a 45 3e 16 6b 1e bf
       0.23603505 -0.5562557 0.19260739 -0.6188215
000100 7b b1 7c 3c 61 15 bf be 33 49 be 3e b1 a4 9b be
       0.015423174 -0.37320998 0.37165222 -0.30399087
000110 d7 5b 89 be cc c2 4e bd c1 ef 17 3e 1e 1a d5 bd
       -0.2682788 -0.05047874 0.14837553 -0.10405372
000120 ff 0d 8a 3e 55 28 ce bd 57 68 67 be 6d a5 ef 3c
       0.26963803 -0.100662865 -0.22598396 0.029253686
000130 56 98 93 be ab 46 38 3e 38 ea 9b 3e 76 3c 7b 3e
       -0.2882716 0.17995708 0.30452132 0.24534783
000140 16 f1 fd bd 2a 65 82 be c7 70 0d be 12 a8 a1 bf
       -0.12399499 -0.25467807 -0.13812552 -1.2629416
000150 30 d3 ef 3d 64 e4 6d be 30 9b 61 3e d4 ce 14 be
       0.11710203 -0.23231655 0.22031856 -0.14532024
000160 63 62 57 bd 9c 89 cd 3d b4 50 f3 3a 92 d9 7e 3d
       -0.052584063 0.100360125 0.001856348 0.06221921
000170 9f 30 e4 bd e2 85 9f 3d e5 a2 b6 bd 90 39 aa 3d
       -0.11142086 0.07789208 -0.089177884 0.083117604
000180 b4 cb 9e 3d 9b 12 0f be 94 ce 74 3e 72 85 96 be
       0.07753697 -0.13971941 0.23906928 -0.29398686
000190 0e 7a bd 3c 7e f4 55 3e db 25 df bc 20 45 9f be
       0.02312949 0.20894048 -0.02723973 -0.31107426
0001a0 e6 97 b0 bd c3 ff 21 3e 8b c6 01 be 8d c4 a4 bd
       -0.08622722 0.15820222 -0.12673394 -0.080453016
0001b0 72 31 66 be 55 36 3e be cd 1e b0 3b e1 77 ac 3d
       -0.224798 -0.18575414 0.0053747655 0.084213026
0001c0 3c b1 09 be 53 79 c6 3d 75 66 b2 be 14 af b0 be
       -0.13446516 0.096911095 -0.34843794 -0.34508574
0001d0 43 ac f4 3c a3 e6 93 be ac 10 e0 3d 4b 40 fc be
       0.029867297 -0.288869 0.1094068 -0.49267802
0001e0 f4 71 1a bd 95 ce a8 bd 46 5a 93 3c 93 33 1a be
       -0.03770633 -0.082425274 0.017987382 -0.15058737
0001f0 53 97 c3 3c e9 f0 f4 bd 7c 70 07 be da 89 1f be
       0.023875868 -0.119600125 -0.13226503 -0.1557993
000200 44 78 2c 3e bb a6 38 bd ac fa 1d bd 26 7b 95 3e
       0.16842753 -0.04508088 -0.038569137 0.29195517
000210 d2 4a 20 bf 67 7f 76 bd d8 fb 24 be c7 74 34 bf
       -0.62614167 -0.060180094 -0.16111696 -0.7049069
000220 8e 87 88 bd ad 13 cb be d8 13 7c 3d b3 6b c3 bd
       -0.0666648 -0.3966345 0.061542362 -0.09542026
000230 3c dd 51 3c 3c 42 95 be 6f 9d 1e 3e 2f 47 46 be
       0.012809094 -0.29152095 0.15489744 -0.19363092
000240 86 6e 3f 3e e1 2b ea bd 78 cb 64 3e 07 27 43 3c
       0.18694505 -0.114341505 0.22343242 0.01191116
000250 ab ae 68 3e a9 dd 0d be 77 3d 7e be 37 49 14 be
       0.2272288 -0.13854088 -0.24828134 -0.14481054
000260 0d e1 80 be f6 61 a3 be 8c 85 50 3e d1 ae cc 3d
       -0.251717 -0.31910676 0.20363444 0.09994281
000270 75 1b 2e be 40 1e 9d 3e 99 6c 51 3c 2d d0 5e be
       -0.17002662 0.3068714 0.012782239 -0.217591
000280 99 c0 d6 3d de fe b2 bd c7 cb be bd 0e 09 89 be
       0.10485954 -0.08740018 -0.09316211 -0.2676472
000290 fd 5d 6b be 1d 4f 80 3c 95 63 d3 3d 7d 15 43 bd
       -0.22985072 0.015662724 0.10321728 -0.047627915
0002a0 4f 72 10 3e 46 a7 07 bf 9d 0d ca be 9e 66 e2 3d
       0.14106105 -0.52989614 -0.3946351 0.11054729
0002b0 c7 61 c0 3e 71 75 78 bd 54 54 ba bc df 22 52 be
       0.37574598 -0.060658876 -0.022745289 -0.20521115
0002c0 c8 bd 57 be 3b 78 a4 3d 89 e0 93 3d 1a 90 37 bd
       -0.2106849 0.08030745 0.07220561 -0.04481516
0002d0 85 79 84 bd 70 9e 4f be cd 91 65 be df dd 2b be
       -0.064684905 -0.20275283 -0.224189 -0.16783856
0002e0 89 cb c0 3c 57 ba 34 bd 99 5a e7 3d 8c 23 67 3c
       0.023534553 -0.04412302 0.11296577 0.014107596
0002f0 c3 97 79 3d 0e 8b 9f bd 9a 3a 30 bd 86 92 db 3b
       0.060935747 -0.077901945 -0.043024637 0.0067008166
000300 c6 55 c5 3d 81 d5 47 bc 88 78 df 3d a0 7a 82 bd
       0.096355006 -0.012196899 0.109116614 -0.06371045
000310 d4 50 b4 bc aa 89 37 bd a6 91 57 3d 7a 3c 91 3d
       -0.022011198 -0.04480902 0.052629136 0.07091613
000320 6d 02 37 be 4f 45 1d 3e 8e 04 11 3d 84 1d 1f be
       -0.17872019 0.1535847 0.035404734 -0.15538603
000330 69 bc 12 bd 2e 8f bd bd 0b c2 89 bd f0 6b 93 be
       -0.035824213 -0.09255825 -0.06726464 -0.28793287
000340 0d b9 b5 3d 73 76 f2 3d 3d e1 80 bd 49 99 f8 3d
       0.08873186 0.11838999 -0.06292961 0.12138612
000350 4a 8c 05 3e 03 b0 04 3e 81 4b 90 be 77 d3 c7 3e
       0.13041797 0.12957768 -0.28182605 0.39028522
000360 f5 0f 15 bf ac 31 6f be 56 78 24 bf 92 66 bc bf
       -0.58227473 -0.23358792 -0.6424612 -1.4718802
000370 e3 fd 60 3d cd 3a a7 3c d2 14 91 3d 92 30 5a 3d
       0.054929625 0.02041378 0.07084049 0.053268977
000380 67 4b 74 be b0 c7 9d bd 15 f2 7a 3b 80 42 9e 3d
       -0.23856889 -0.07704103 0.0038291265 0.077275276
000390 31 98 e2 bc 8f 33 2d be 5a 5e 00 bf 01 63 3f be
       -0.027660461 -0.169142 -0.5014397 -0.1869011
0003a0 37 7f 7e 3d ba 51 e0 bd 9e 00 87 3e 48 aa 09 3b
       0.06213304 -0.10953088 0.26367658 0.0021006037
0003b0 23 61 df be 61 e9 fa b6 d8 f5 16 bf 0d fe 73 be
       -0.43628797 -7.4777495e-06 -0.5896888 -0.23827381
0003c0 f6 55 db bc fe 25 2f bf 06 aa 2e bd 4b f7 64 3d
       -0.026774388 -0.68417346 -0.042642616 0.0558999
0003d0 c6 3a 0f 3e 06 c8 bf be 52 c7 13 bf 74 ad 66 bd
       0.13987264 -0.37457293 -0.57726014 -0.05631776
0003e0 1e 37 1f 3b 51 e3 aa 3e 92 31 59 3e a2 b0 60 be
       0.0024294327 0.33376554 0.21210316 -0.2194238
0003f0 f3 a0 a2 bd 4c 28 18 be ca 85 6d 3e 55 11 48 bf
       -0.07940855 -0.14859122 0.23195568 -0.78151447

fc1.bias f4 [256]
000000 01 71 54 bd 1f a1 12 3d 05 33 c5 bd 0d fe 8d 3c
       -0.05186558 0.03579819 -0.09628872 0.017333055
000010 c4 4c 91 bb 1b 04 98 ba cb a7 22 be 13 a6 86 be
       -0.0044342 -0.0011597903 -0.1588432 -0.2629858
000020 15 ac 82 3d 8b 25 07 be 17 00 4d be 01 c1 3c 3e
       0.06380478 -0.13197915 -0.20019566 0.18433
000030 f2 f4 29 be 4a 95 19 3e 10 6c 32 bd 1b df 8f bd
       -0.16597345 0.14998356 -0.043560088 -0.07024976
000040 e9 d2 c8 bd e9 c6 11 bc 6a 3e 6f bd 7f 15 78 be
       -0.09805853 -0.0088975215 -0.058409132 -0.2422695
000050 39 da 88 bc 51 0f 06 be 6a 93 f4 3d e3 52 83 3b
       -0.01670562 -0.1309178 0.119421795 0.0040076836
000060 ad 2f 13 be 51 19 04 3d 14 17 a2 bd b0 94 0d 3e
       -0.14373656 0.032250706 -0.07914558 0.13826251
000070 f6 9e e4 bd 33 cc 2d bc 97 b0 43 bd 33 41 e5 3d
       -0.11163132 -0.010607767 -0.04777583 0.111940764
000080 13 e5 69 3d c2 2b 0f bd 5d 4d 4d be 98 bf e6 3d
       0.057103228 -0.03495384 -0.20049043 0.11267012
000090 30 05 28 be 09 2e 41 3d 55 0c b2 bd 06 c1 81 3d
       -0.16408229 0.047163043 -0.086937584 0.063356444
0000a0 32 cd 4b bd ff 28 45 bd 77 8b 34 be 1e cc 03 3e
       -0.049756236 -0.0481348 -0.17631327 0.12870833
0000b0 9d fc d3 3c ea 0d e2 bd 62 f7 6e be 78 9b 83 3d
       0.025877291 -0.1103781 -0.23336557 0.06426138
0000c0 09 b1 aa 3d c7 1c 96 be 7a 2e dd bd cc b4 ad 3d
       0.08334548 -0.2931883 -0.1079988 0.0848175
0000d0 e3 3e 89 be 42 bc 6d 3c 30 16 1f 3d 90 eb 13 be
       -0.2680579 0.014510216 0.03883952 -0.14445329
0000e0 96 04 ae 3c 12 2b 7c 3d 8e 78 4d 3d e5 19 5b be
       0.021242421 0.061564513 0.050163798 -0.21396597
0000f0 b0 42 00 bd a1 3a 0a 3d 69 92 89 3e 59 48 13 be
       -0.0313136 0.03374732 0.26869515 -0.14383067
000100 e6 9b bc bc 42 cf ba 3d e2 e5 e3 bd e9 57 0e bd
       -0.023023557 0.091215625 -0.11127831 -0.034751806
000110 bb 08 9c 3d eb ff 53 be 38 12 5b be 03 df 15 be
       0.07618853 -0.20703094 -0.21393669 -0.14635853
000120 b0 52 15 be eb fa 4f be e5 56 12 3b 08 0b 65 3d
       -0.14582324 -0.20310561 0.0022329625 0.055918723
000130 09 02 f4 bd e9 cb 7a bd a8 a1 00 bd 12 3e 0f be
       -0.11914451 -0.06122962 -0.031404167 -0.13988522
000140 9e 99 1b be df 7e 24 bd 8d 29 8a 3d 87 2e 82 3b
       -0.15195319 -0.040160056 0.067462064 0.0039728316
000150 db 82 d2 3d 98 fa 12 be 1f d5 af 3e 67 47 14 3c
       0.10278865 -0.14353406 0.34342286 0.009050227
000160 e6 f6 f6 3c 22 10 86 bd 58 2b f2 3d 78 f5 90 bd
       0.030147027 -0.06546046 0.118246734 -0.070780694
000170 48 a0 39 bd 1c 42 f5 3c 3a 45 40 bd e8 3c d9 bd
       -0.04531887 0.02993875 -0.04694102 -0.1060732
000180 a8 4e 44 3e da 8b 13 3e a7 79 f0 bd b2 a4 1b be
       0.1917063 0.14408818 -0.11741953 -0.15199545
000190 5c 93 ec bd ff 64 ee bd 38 28 eb 3c 8c 61 63 bd
       -0.11551544 -0.11640357 0.028705701 -0.05551295
0001a0 96 1d 61 be 28 c5 72 3e c0 0a 8b bd b6 da a8 bd
       -0.21983942 0.23708022 -0.0678916 -0.08244841
0001b0 0d ae ad bd e8 38 03 be be ec 58 be ac 7c 8a 3b
       -0.08480463 -0.12814677 -0.2118406 0.004226288
0001c0 25 2d 01 be 33 3e f1 bd 72 f7 56 3d d2 90 fe bd
       -0.12614878 -0.11779442 0.052482076 -0.12429966
0001d0 f9 96 19 be 4c 73 f0 bd 92 11 70 be 64 37 33 bd
       -0.14998998 -0.11740741 -0.23444203 -0.043753996
0001e0 c8 a7 4a be 40 2a ce bd a7 04 98 bd c4 f5 90 bd
       -0.19790566 -0.10066652 -0.07422762 -0.07078126
0001f0 2f 24 34 bd 34 f2 f5 3b 30 f2 28 be ee 06 af bd
       -0.04397982 0.0075056795 -0.16498637 -0.085462436
000200 bd 37 bc 3d f3 3d b4 3b 7d ce 55 be 98 bd 80 be
       0.09190319 0.005500549 -0.2087955 -0.2514465
000210 19 50 04 3b 12 ec 51 3d ce 10 cb bc a3 e9 7e 3d
       0.0020189343 0.051250525 -0.024788287 0.062234532
000220 40 29 62 be eb 6d 73 be a5 8d 32 be a1 97 92 bd
       -0.22086048 -0.23772399 -0.17436846 -0.07157827
000230 27 67 49 3d 25 d2 8a be 6f ed 90 bd 23 15 65 3d
       0.04917064 -0.27113453 -0.07076537 0.05592836
000240 5c 4e 54 be c3 66 68 3d 2c 47 85 be 4f c9 a3 bd
       -0.20733017 0.056738626 -0.26030862 -0.07997381
000250 22 3d 1d bd 23 b2 25 bc 73 87 65 bd 59 30 06 be
       -0.03838838 -0.010113272 -0.056037378 -0.1310438
000260 8e 96 73 bd 9d fe 98 39 24 a5 4f be 0f 90 87 bd
       -0.059469752 0.000291814 -0.2027784 -0.06619274
000270 df 14 4f 3e 16 a1 f5 bd e5 12 98 bd 34 f6 fe bc
       0.20222805 -0.11993615 -0.07425479 -0.031123258
000280 da 34 66 bd 67 20 b0 3d 47 d8 70 3d 03 0c e5 bd
       -0.056202747 0.0859993 0.05880001 -0.11183932
000290 88 ff e3 3c 6c 3c 1e be de de 40 be 9b ce 92 be
       0.027831808 -0.15452737 -0.18835017 -0.28673252
0002a0 44 0b 37 3d 36 5d 85 3d bf 10 18 3e bc 45 52 3d
       0.044688478 0.06511919 0.14850138 0.051336035
0002b0 7d f2 79 3d 29 cb 43 3d 03 1a 2a bb 0b a5 46 be
       0.06102227 0.04780117 -0.0025955446 -0.19398896
0002c0 23 3f f6 bd 31 5a 8c be 7d bf 4c 3d b0 c6 22 3d
       -0.12023761 -0.2741256 0.049987305 0.039740264
0002d0 68 56 cd 3d d9 71 26 be cf 18 f4 3b bf a6 76 3d
       0.10026246 -0.16254367 0.0074492465 0.060217615
0002e0 ad 60 aa bd 13 c1 39 3d f0 77 6b 3c 79 5e 34 bc
       -0.08319221 0.045350146 0.014371857 -0.011008852
0002f0 51 34 05 3e d9 22 e8 bc 92 f1 17 be 6a ee 7a be
       0.13008238 -0.02833693 -0.14838246 -0.2450501
000300 bd 92 87 3e 43 4e 2a 3d 10 5a c5 3c bd be e0 bc
       0.2647914 0.041578542 0.024090797 -0.027434701
000310 56 6d 78 be c8 13 a0 3d 43 12 d5 bc af 09 80 be
       -0.24260458 0.07816273 -0.026009684 -0.25007388
000320 21 2e 32 bc d8 37 0b 3e 17 7f 78 bc 1a 61 82 bd
       -0.010875256 0.13595521 -0.015167019 -0.06366177
000330 05 a5 68 be 73 e0 6b be 65 7b 02 be 9d e0 55 3e
       -0.227192 -0.2303484 -0.12742384 0.20886464
000340 e3 91 9a bd c4 b0 e1 3d 31 8c 41 be e0 d3 08 bd
       -0.07547357 0.110200435 -0.18901135 -0.033405185
000350 b1 53 53 be ce 31 26 3b 06 2b 74 be f3 2c 37 be
       -0.20637394 0.0025359276 -0.23844537 -0.1788824
000360 65 a1 73 bd aa d8 0f be 62 0b b6 bd 88 aa 78 3e
       -0.05948009 -0.14047495 -0.0888889 0.24283803
000370 c6 03 85 3d 56 c0 c4 3c 1d 56 90 be fe 6e 91 3c
       0.0649486 0.024017494 -0.281907 0.01775312
000380 9f 2a a8 bb fb 19 07 be f5 d6 b1 bc c9 d2 4e be
       -0.005132034 -0.13193505 -0.021708945 -0.20197596
000390 6c 19 a9 bd 98 25 74 3d 73 73 81 3c 81 61 40 be
       -0.08256802 0.059606165 0.01580212 -0.18787195
0003a0 6d 0d 03 be 84 61 e7 3b 8c af 23 3d 95 d8 03 3e
       -0.1279809 0.0070611853 0.039962336 0.12875588
0003b0 04 5b 11 be da d2 06 3c 4a 52 4f be 29 4a 59 be
       -0.14194876 0.008228982 -0.20246235 -0.21219696
0003c0 2f 6c ef bd 3f 77 4b bd 9f 95 45 be 7e 9e bf 3c
       -0.11690556 -0.04967427 -0.19295357 0.023391005
0003d0 bb 00 ff 3d c3 16 0a bd 15 d8 7f be a3 89 41 bd
       0.12451311 -0.033713114 -0.24984773 -0.0472504
0003e0 a2 a4 70 be ab f8 2b 3b 9c f7 e7 3d 30 2f a5 bd
       -0.23500302 0.0026240747 0.113265246 -0.08065641
0003f0 94 d4 35 3d 4f d8 78 be 2b 95 31 bc 28 95 16 3e
       0.044392183 -0.24301265 -0.010838787 0.14705336

fc2.weight f4 [64, 256]
000000 6c 55 ac bd 55 5d 72 bd 8f e1 4c 3e bf 8d 94 bb
       -0.084147304 -0.05917104 0.20007919 -0.004533499
000010 b0 7e ab 3d 75 ce d9 ba 9e f5 7a bc a4 29 fc bd
       0.08373773 -0.0016617315 -0.015317349 -0.1231263
000020 20 fa 78 be 21 2d c8 3d d5 93 ab be 32 f1 00 bc
       -0.24314165 0.09774233 -0.33511224 -0.007870005
000030 89 96 89 bc 88 93 a0 be 16 5b 51 bd 45 53 37 3d
       -0.016795414 -0.31362557 -0.051112257 0.044757146
000040 e2 f7 0f be bc 21 3b 3c ed 17 3b bd c9 e9 0e 3d
       -0.14059404 0.011421617 -0.045677114 0.034890924
000050 6e 21 e4 bc 3b e2 5c be 5d d9 03 3e 56 c5 15 3e
       -0.027847972 -0.21570675 0.12875886 0.14626059
000060 8b fc 18 3e 34 41 28 bb 58 f4 c1 bd d3 68 36 be
       0.14940087 -0.002567363 -0.09470433 -0.17813425
000070 b4 5a 7b 3d 26 78 a6 3e 94 5a 26 be 01 a4 b6 bd
       0.061365798 0.3251354 -0.1624549 -0.08918
000080 99 0e 1f 3e 7b a4 2d 3d a8 dc 29 be b0 8f 52 be
       0.15532912 0.04239319 -0.1658808 -0.20562625
000090 b3 bc 32 bd 72 b9 2b 3d f3 1c 16 bd 9d 26 9c 3d
       -0.04363699 0.0419249 -0.036648702 0.076245524
0000a0 cb f5 f6 bd d4 be e7 3d 70 d2 32 3e 56 d7 a6 bc
       -0.120586 0.113156945 0.17463088 -0.020366352
0000b0 2a 79 d6 bb b6 fc 1a be dd 9a da bd cb 85 85 bd
       -0.0065452056 -0.15135464 -0.10674069 -0.065196596
0000c0 f6 81 ff bd c7 3c 98 3e 97 35 46 3c 18 c3 e2 bd
       -0.1247596 0.2973387 0.012097738 -0.110723674
0000d0 57 d7 cb bd 61 6c 85 3e 38 70 e2 3d 58 15 e9 bd
       -0.09953182 0.2605925 0.1105656 -0.11381024
0000e0 29 e7 73 3d a1 df 5c bc 64 7a 68 bd 43 eb 91 bd
       0.059546623 -0.013481052 -0.056757346 -0.07124951
0000f0 c0 8b 48 be f1 d5 1f 3e 80 7e 1f bc 5f 5b 77 3e
       -0.1958456 0.15608956 -0.00973475 0.24155949
000100 f0 04 56 bd 75 6a f8 bd 84 80 90 bd 83 42 0f 3e
       -0.052250803 -0.1212968 -0.070557624 0.13990216
000110 e1 6d 20 bd 8b d2 80 bd f1 ea 81 bc 21 b3 70 be
       -0.03916729 -0.06290158 -0.0158591 -0.23505832
000120 ad 2c 4d be f2 52 f8 bd f9 bc 00 3e a0 43 79 3d
       -0.20036574 -0.121251956 0.12572087 0.060855508
000130 f2 b7 45 bc 0e 1b 6f 3d 45 22 31 bd 74 77 66 bd
       -0.012067782 0.05837541 -0.043245573 -0.056266263
000140 a7 55 a2 3c 4e 9c a0 3e db 44 7a bd 29 92 1a 3d
       0.019816233 0.3136925 -0.061100822 0.037737045
000150 f0 9f 52 3e 9d 03 42 bc 9a 5d 91 bd af de 8a bb
       0.20568824 -0.011841682 -0.07097931 -0.0042379717
000160 ab 95 5b bc 32 22 1c 3e c2 1f 5e bd 31 e8 1b bc
       -0.013402383 0.1524742 -0.054229505 -0.009515808
000170 e4 5f 39 bd 23 6f 93 bc 0a b2 84 bd e3 be 39 3e
       -0.045257464 -0.01799733 -0.06479271 0.18139224
000180 f4 52 d6 bc ad f3 1a 3e 0e 4c ea bd 53 12 32 3c
       -0.026162602 0.15132017 -0.114402875 0.010868627
000190 3e a8 9c 3d 34 09 59 3e 43 78 dd bd 3c 85 dd 3d
       0.07649277 0.21194917 -0.10813954 0.10816428
0001a0 31 83 93 3d 6b 46 89 be 33 d9 13 be c5 65 51 3e
       0.07202757 -0.26811537 -0.14438324 0.20448978
0001b0 ce 80 40 bc 8c ad 3c 3d 91 fd 2a 3c 56 af 31 3d
       -0.011749459 0.046063945 0.0104364315 0.043380104
0001c0 c6 2f 3f 3e 22 8a 9e 3c 91 54 9f 3e 9d a0 ac 3c
       0.18670568 0.019352976 0.31119207 0.02107268
0001d0 c5 eb 06 3e bf b4 06 be df 65 d5 be 60 92 d5 3e
       0.13175876 -0.13154887 -0.41679284 0.41713238
0001e0 fd f0 b9 3d 9e a2 d2 3c fe ae 80 3d a8 b2 5a bd
       0.09079168 0.025712308 0.06283377 -0.053393036
0001f0 26 ff f5 bd d3 d1 b0 3d 09 01 11 3d c7 db 30 3d
       -0.12011556 0.08633771 0.035401378 0.043178346
000200 4a 8f 2e bb 46 2d 08 be 15 b8 d0 bc 63 c1 04 3e
       -0.00266357 -0.1329852 -0.025478402 0.12964396
000210 43 5a 92 bd 87 3e af be 94 48 d4 3d d2 db 30 be
       -0.07146122 -0.34227392 0.10365406 -0.17271355
000220 a9 41 29 be 42 82 2a bc 36 61 42 3d 10 57 c5 be
       -0.16528954 -0.010407032 0.04745599 -0.38542986
000230 39 25 98 be a8 ed f1 3e fa 07 1e be 17 2b 86 3d
       -0.297159 0.4725163 -0.1543273 0.065511875
000240 9c 02 4d be 18 65 01 bd 87 86 0f 3e 71 8a 97 bb
       -0.20020527 -0.03159055 0.14016162 -0.004624658
000250 5d 64 fc 3c 09 b0 84 bd fa ce a6 bd cf 3c 6e bd
       0.030809576 -0.064788885 -0.081449464 -0.05816346
000260 f2 b5 19 3d 06 df 40 3d 38 a7 c3 3d 7f 5a a0 bd
       0.037527032 0.04708769 0.09553379 -0.07829761
000270 3e a4 54 bd 12 28 93 bc 17 3c 47 3e 66 22 f1 bd
       -0.051914446 -0.017963443 0.19456516 -0.11774139
000280 a9 61 fb 3c 04 eb 74 bd c0 ef 8a 3c b6 f0 2f 3e
       0.030686216 -0.05979444 0.016960025 0.17181668
000290 63 35 69 be 23 b0 1f 3b c1 8c 6d 3e b0 76 eb 3d
       -0.22774272 0.002436646 0.23198225 0.11497247
0002a0 9e 59 cc bd a2 d0 34 bc 90 0c e6 3e 9f 09 0f 3e
       -0.099780306 -0.01103607 0.4493146 0.13968514
0002b0 7a aa d9 3e 67 87 50 be a4 a0 01 bf 33 80 01 3c
       0.42512876 -0.20364152 -0.50635743 0.0079041
0002c0 e9 08 75 3e 42 fc 45 bd b7 38 30 be 04 96 c7 bd
       0.2392918 -0.048336275 -0.17209135 -0.0974541
0002d0 64 d3 1c 3d af 42 2f 3d b5 41 85 bd 78 a5 d2 3d
       0.038287535 0.042788204 -0.06506673 0.10285467
0002e0 34 55 8c bd 2a 2a 9a bc f2 26 24 be fb a8 8f 3e
       -0.06852189 -0.018818934 -0.16030481 0.2805861
0002f0 3c 7d 16 3e 35 db a2 3d 36 35 07 be f4 45 a9 bd
       0.1469621 0.07951967 -0.13203892 -0.082652956
000300 84 64 f5 3d ca 22 da bd 47 12 bd 3c f8 04 6b bd
       0.119820625 -0.10651167 0.023080004 -0.057377785
000310 be d4 1f bd c4 73 1a be 8e 92 27 3e 51 85 2b 3e
       -0.039021246 -0.15083224 0.163645 0.16750075
000320 dd d6 2d 3d 0f 00 0f bd 35 c4 ee bc da 8d e7 bd
       0.042441238 -0.034912165 -0.029146293 -0.11306353
000330 be 3e 45 bb 0f d9 b6 bd 7d b2 f6 3e 98 d5 7b be
       -0.0030097212 -0.089281194 0.4818305 -0.24593198
000340 89 b2 08 bd 92 cf a4 3c 0a dd a7 3d 1e b4 14 3e
       -0.03337339 0.020118508 0.08196457 0.14521834
000350 63 ff 00 3e b1 dc a9 3e 01 ac 93 bd 31 be 15 be
       0.12597422 0.33176187 -0.072105415 -0.14623334
000360 f2 da 90 3e e8 16 18 be 3f 8b 34 3d d2 7b b1 3c
       0.28292042 -0.14852488 0.044078108 0.021665487
000370 28 e6 7c 3e b7 3d 77 bd 6d 75 41 3e 3c 65 a0 bd
       0.24697173 -0.06036159 0.1889245 -0.07831809
000380 23 19 69 be af 61 b1 3b 77 3d 4d 3d 8a 61 37 be
       -0.22763495 0.005413256 0.050107446 -0.17908302
000390 8c 34 c1 bc 3b 77 51 3d ed e4 d9 bd e4 21 bb bd
       -0.023584627 0.051139098 -0.10639367 -0.091373235
0003a0 1e 07 63 3c e5 2d be be 99 bd ec bd 62 e9 f7 be
       0.013856677 -0.3714439 -0.115596004 -0.48420244
0003b0 45 f1 33 3d c1 57 a9 bc a6 3a 89 3e b9 31 4a 3d
       0.043931264 -0.020671727 0.26802558 0.049363825
0003c0 a2 c3 0a be 48 18 af be dc f5 11 3e e4 1e cf bd
       -0.1355119 -0.34198213 0.14253944 -0.10113314
0003d0 31 3b b5 3c a6 2d 4f bd df 7c a7 bd e5 9c f5 3c
       0.022122951 -0.050580643 -0.08178114 0.02998204
0003e0 ad ce 83 bd e8 e9 51 be 9f 8f 3b 3e 72 a1 87 3e
       -0.06435905 -0.20499384 0.18316506 0.2649036
0003f0 ae 51 90 be 98 45 86 be 5c 84 a5 3d cb 45 18 be
       -0.28187317 -0.2622497 0.08081886 -0.14870374

fc2.bias f4 [64]
000000 4c cb 1b 3e 3c 7e a4 bc 8c 35 7a bd 12 e0 91 bd
       0.1521427 -0.020079724 -0.061086223 -0.07122816
000010 71 86 96 bd f1 18 b3 3d 26 ba f3 3b ce 7e 14 3f
       -0.073498614 0.087449916 0.007437962 0.5800599
000020 e5 5e 2b 3e 8c c2 11 3f d4 43 06 bd 40 00 9f bc
       0.16735418 0.5693748 -0.03277953 -0.019409299
000030 2c be 24 3d 75 7b 2b 3e 41 14 1f 3d c1 7f 44 bd
       0.040220425 0.16746314 0.038837675 -0.047973398
000040 ab b1 95 3d 2d 6a a6 3e 8e 7a 16 3e 78 a7 6d 3d
       0.07309278 0.3250288 0.14695188 0.05802104
000050 25 2e a6 bd 93 d7 66 be 79 9c be 3b 6b e3 fe bd
       -0.0811427 -0.22543173 0.005816993 -0.1244572
000060 cb 4a 29 3c a3 cb 06 3e 7e 49 49 be 31 d6 27 bd
       0.010332773 0.13163619 -0.19656941 -0.040975753
000070 03 db 1a bc b9 58 bc bd 81 52 01 3e 42 81 c7 bd
       -0.0094516305 -0.0919661 0.12629129 -0.09741451
000080 9d 86 81 bd b7 91 42 3e 96 91 af bd 70 16 c8 3e
       -0.063245036 0.19000898 -0.0857269 0.39079618
000090 12 bf f9 bc e5 4c 63 bc c2 6e 70 be 5f 37 7d be
       -0.030486617 -0.013873314 -0.23479751 -0.24728154
0000a0 13 26 8f bd 6c c8 ea 3b 42 07 80 3c d3 0b 10 bd
       -0.06989684 0.0071650054 0.01562846 -0.035167526
0000b0 6b 5d 15 be b0 92 4b 3e d9 9d 2d 3d a2 81 16 be
       -0.14586417 0.19880176 0.042386863 -0.14697888
0000c0 73 c4 20 3f 37 55 12 3e 0f f2 62 bd 28 ac 14 3f
       0.6279976 0.1429032 -0.055406626 0.5807519
0000d0 a1 3b d6 3d 0a e1 43 3d cb 2f 3a 3e cf de ad bd
       0.10460592 0.047822036 0.18182294 -0.08489763
0000e0 2b 91 90 bb da 6f 69 3d cf 70 cb bd 65 b3 87 3e
       -0.0044118366 0.056991436 -0.09933626 0.26504055
0000f0 5d 44 a0 bc 7d 09 8e bd 5a 82 04 3f 0d 68 61 3b
       -0.019563848 -0.069354035 0.517614 0.0034394294

fc3.weight f4 [4, 64]
000000 1a dc 4b 3e e7 cd 4e 3d 05 53 25 3d 42 c1 11 bf
       0.19908181 0.050489333 0.040362377 -0.56935513
000010 8f 1a 85 3e 80 42 ce 3e 62 6c d5 be 78 11 2e 3e
       0.25996825 0.4028511 -0.41684252 0.16998851
000020 fa 0d 07 3e a4 be 21 3e d5 cc e1 be 66 bb 3d bb
       0.13188925 0.1579538 -0.44101587 -0.002895081
000030 39 12 ee 3d 88 a2 be 3d 9a 2e 99 3e 81 79 8c bc
       0.116245694 0.09308344 0.29918367 -0.017147781
000040 38 a9 f3 3d 58 6d 10 3e a0 13 5b 3e 51 19 a2 bc
       0.1189751 0.14104211 0.21394205 -0.019787462
000050 69 3b 4f 3d 26 d5 13 be bb 2f 31 be 43 75 b7 be
       0.050593767 -0.14436778 -0.17303364 -0.3583165
000060 1a 10 b0 3e 74 5a 54 3e fd 48 46 be 5e ae dc 3e
       0.34387285 0.2073763 -0.1936378 0.43101782
000070 91 c8 57 be b4 ee b2 be 36 06 6f 3d a1 b0 b9 bd
       -0.21072604 -0.3494774 0.058355533 -0.090668924
000080 d2 ed 28 3d 97 c1 34 3d 5f ae 97 bd 31 af 45 3d
       0.041242428 0.044129934 -0.074063055 0.04826278
000090 b8 73 27 3e c1 bc f0 be ac 66 a2 bd 94 a8 b0 be
       0.16352737 -0.47019008 -0.07929739 -0.34503615
0000a0 1f 4f 93 bd 8b 4a 31 3e e6 4f 96 bb ef f0 5a 3d
       -0.071928255 0.17313592 -0.0045871614 0.05345243
0000b0 6a c5 31 be 28 a9 83 3d 61 f2 f2 3d eb dd 44 be
       -0.17360464 0.06428748 0.11862636 -0.1922528
0000c0 bc d6 f2 3d 36 ad 60 3e 0c 78 fa bc ef 23 3a 3e
       0.118573636 0.21941075 -0.030574821 0.1817777
0000d0 b0 60 45 3e 70 f7 0d bf 47 50 1b 3e c8 16 b3 bd
       0.19275165 -0.55455685 0.15167342 -0.087445796
0000e0 07 6b 2f be 16 e2 cc 3e 30 e3 fa 3d 8c f2 74 3d
       -0.17130671 0.4001624 0.12250364 0.059801623
0000f0 ff 3c 39 3e dc 40 30 3d 87 72 17 3e 1a c4 ed bb
       0.18089674 0.043030605 0.14789782 -0.007256043
000100 fc f0 2b 3e 9a b7 a9 3c 6e e4 ab bd c8 f6 6a be
       0.16791147 0.02071743 -0.08393179 -0.22945702
000110 ad 40 f4 bd fb b5 07 3f 2a 6e ab 3d 37 3e d5 3c
       -0.119263984 0.53012055 0.083706215 0.026030643
000120 9a 3d 18 3e 49 24 1d 3e 2c 4d ed 3c fd c6 2e bd
       0.14867249 0.15345873 0.028967462 -0.04267024
000130 f0 3a ad 3d 0f 66 74 3d 3a a0 97 3e 76 8b 8e 3d
       0.08458507 0.059667643 0.2961443 0.06960194
000140 b0 34 22 bf 18 a4 8c 3d 40 94 37 3e 2f dc 10 be
       -0.63361645 0.06867236 0.17927647 -0.14146493
000150 91 7f 0f be b4 4f e5 bd e8 80 c7 3e 74 46 e3 bd
       -0.14013506 -0.11196843 0.38965535 -0.11097422
000160 e6 93 93 3e a8 8f 39 3e 5a 7c 36 3d bd 49 1d bf
       0.28823775 0.18121207 0.044552185 -0.6144064
000170 31 1a 49 3e dd 1b 69 be 53 6a 00 3e 2d a9 9a bd
       0.19638897 -0.22764535 0.1254056 -0.07551799
000180 ce cf 80 3d a3 6f 0f 3e 47 84 8b be 49 08 2f 3d
       0.062896356 0.1400743 -0.27249357 0.04273251
000190 96 16 68 3d a8 b9 42 3e d3 4e 29 be 7b 94 28 be
       0.056662165 0.19016135 -0.16533975 -0.16462891
0001a0 d7 53 e0 3d 14 f7 b3 3e 61 e8 e6 3c b2 83 fe bb
       0.10953491 0.35149443 0.028186979 -0.007767164
0001b0 19 f0 ef bd 4c c5 7d 3d 18 e3 32 3e 9f ca ac bd
       -0.11715717 0.061955735 0.17469442 -0.084370844
0001c0 aa d5 49 3e 1b 55 2a 3e d8 4e 2b 3e bd b1 3e 3e
       0.19710413 0.16634028 0.16729295 0.1862249
0001d0 5b 4f 97 3e 9d 30 5e 3d 48 47 1e 3e 7d 0e 54 bd
       0.2955273 0.05424558 0.15456879 -0.05177163
0001e0 49 a1 e0 be b9 29 bd 3e 7e d2 29 bd 7f 8b 7a 3d
       -0.4387305 0.36945894 -0.041460507 0.06116819
0001f0 5b 31 bb bd 86 7c 3e bf 31 df 2b 3e 98 89 a5 3c
       -0.09140273 -0.7440876 0.1678436 0.020207211
000200 6f e1 c7 3c 31 ba c2 bd bc 4d 88 3d b4 be 6f be
       0.024399487 -0.095081694 0.06655452 -0.23412591
000210 ea a4 7b 3e 13 6d ae 3d 4a 34 8e 3e 2c 72 1a 3e
       0.24574628 0.08516898 0.27774268 0.15082616
000220 3e 3c 3b 3e 67 56 07 3e 50 ce 9d 3e e6 7c c9 be
       0.182847 0.13216554 0.30821466 -0.39353102
000230 bd 82 7e be 2d 7c 2a 3e ed 5d 67 3e bf 08 f2 bd
       -0.2485456 0.16648932 0.22594424 -0.118180744
000240 68 2f 93 3e b8 8f a9 3c a7 02 6d 3e f6 6a 15 be
       0.28747106 0.020698413 0.23145543 -0.14591584
000250 8b d9 b5 bd 48 8d 46 bd 0c 23 7f bd 56 32 80 be
       -0.08879384 -0.04847458 -0.062289283 -0.25038403
000260 23 78 3d 3e 18 26 85 3e ec eb c5 bd a6 29 ed bb
       0.1850286 0.26005626 -0.09664139 -0.007237631
000270 ea de 9c be ba 95 59 be ee be a8 bc 67 53 f7 3d
       -0.3063882 -0.21248522 -0.020598855 0.120764546
000280 09 da 07 be 64 cc a8 3d fa ac 15 be 2a 97 fd 3d
       -0.13266768 0.082421094 -0.14616767 0.12382348
000290 5d 9c bc 3e 91 88 41 be 4f 3f 93 be a5 67 1e be
       0.36838046 -0.18899752 -0.28759238 -0.15469225
0002a0 c8 f6 81 bd bd f1 0a 3f b7 18 e1 3e 8c 25 2d bf
       -0.06345898 0.54275113 0.43964168 -0.67635417
0002b0 b7 52 2c be 49 79 15 3e b9 1b 91 3e 07 ce b5 bc
       -0.16828428 0.14597048 0.28341463 -0.022192968
0002c0 2f c8 65 3e 93 ec 75 be 6f 16 3a be 00 a4 1f 3e
       0.22439645 -0.24016027 -0.1817262 0.15589905
0002d0 c0 76 6a 3e 9b da cd be 8a 4e c7 bd 28 03 b0 3d
       0.22896862 -0.40205845 -0.09731777 0.08594352
0002e0 bb a5 ef 3e e1 ba 4f 3e c4 bf 50 3e b9 4f e1 3d
       0.4680613 0.20286132 0.20385653 0.11001534
0002f0 be 88 7a 3e 59 fe 8e bc c3 3d e0 3d b4 45 2a 3e
       0.24466226 -0.017455267 0.1094928 0.16628152
000300 db b5 fe bc eb bb cc bd 20 d9 f7 bc 91 b2 c7 be
       -0.031092575 -0.0999678 -0.0302549 -0.39003423
000310 94 9b 62 be c2 de 0e 3f be 81 b0 3e b8 af 2b 3e
       -0.22129661 0.5580865 0.34473985 0.1676625
000320 1f a7 44 3d 34 a2 ff 3d 7d c1 d5 bd 5c e7 aa be
       0.04801094 0.1248211 -0.104372956 -0.33379638
000330 6e 9b e6 3e dc dc bd 3d 85 bd 75 3e a0 6e 32 3b
       0.45040458 0.09270641 0.23998077 0.0027226582
000340 32 ab 1a 3d ab 18 d7 3d ea 3d 33 3e 53 9b 4b bf
       0.03776092 0.10502752 0.17504087 -0.7953388
000350 92 77 bc be 2c 50 9c bd e5 bb 99 3e 6a 6f 3d be
       -0.36809975 -0.07632479 0.30026165 -0.18499532
000360 5b aa cd 3e b4 55 d3 3d e8 0c a7 be 3c f8 95 be
       0.40169033 0.10319081 -0.32627034 -0.2929095
000370 5c a9 3a 3d 04 eb c5 3d 9a 4f 34 3e ad e6 96 be
       0.04557167 0.09663966 0.1760849 -0.29472867
000380 41 d2 3a bf 69 1f 33 3e fd c6 64 be 20 85 1a 3e
       -0.7297707 0.17492451 -0.22341533 0.15089846
000390 b3 40 02 bf bd fa 90 be a1 e2 ac bd 7b 1b 3d bd
       -0.50879973 -0.28316298 -0.084416635 -0.046168786
0003a0 4e 16 a8 bd 19 74 dd 3d fe 5b 93 3e 07 c9 69 3e
       -0.08207379 0.108131595 0.28781122 0.22830592
0003b0 53 2a cc bd 96 30 4c be e8 99 bb 3d 50 c9 d4 be
       -0.0996901 -0.19940409 0.09160215 -0.4155984
0003c0 96 24 47 3e 7e 7b 53 bf a2 99 cd 3e c3 a4 43 3e
       0.1944755 -0.8261031 0.40156275 0.1910582
0003d0 82 07 86 3e cd 98 69 be 4d d7 99 bd e1 7a 83 bd
       0.26177603 -0.22812195 -0.075117685 -0.06419922
0003e0 9e 63 55 3e 3c 3b ea 3e 24 e0 c9 be ea 85 ee bd
       0.20838782 0.45748317 -0.39428818 -0.11646636
0003f0 56 38 62 be aa 45 0f be 7d b6 b4 3d a6 33 48 3e
       -0.22091803 -0.13991418 0.088238694 0.19550952

fc3.bias f4 [4]
000000 30 48 ed 3e 6e a6 e8 3e d2 d4 c8 3e 66 d8 ee 3e
       0.46344137 0.45439476 0.3922487 0.46649474
